…
    "_step": 8,
    "train/epoch": 4.0,
    "_runtime": 384.5627362728119,
    "train/loss": 0.9004,
    "eval/runtime": 1.7052,
    "eval/samples_per_second": 37.532,
    "eval/loss": 0.950279951095581,
    "train/train_runtime": 22.0279,
    "train/total_flos": 213809957437440.0,
    "train/train_samples_per_second": 0.726,
    "graph_0": {
        "_type": "graph",
        "format": "torch",
        "nodes": [
            {
                "name": "transformer",
                "id": 140199275915536,
                "class_name": "GPTNeoModel(\n  (wte): WrappedEmbedding(\n    (prompt_embedding): Embedding(10000, 2560)\n  )\n  (wpe): Embedding(2048, 2560)\n  (drop): Dropout(p=0, inplace=False)\n  (h): ModuleList(\n    (0): GPTNeoBlock(\n      (ln_1): LayerNorm((2560,), eps=1e-05, elementwise_affine=True)\n      (attn): GPTNeoAttention(\n        (attention): GPTNeoSelfAttention(\n          (attn_dropout): Dropout(p=0, inplace=False)\n          (resid_dropout): Dropout(p=0, inplace=False)\n          (k_proj): Linear(in_features=2560, out_features=2560, bias=False)\n          (v_proj): Linear(in_features=2560, out_features=2560, bias=False)\n          (q_proj): Linear(in_features=2560, out_features=2560, bias=False)\n          (out_proj): Linear(in_features=2560, out_features=2560, bias=True)\n        )\n      )\n      (ln_2): LayerNorm((2560,), eps=1e-05, elementwise_affine=True)\n      (mlp): GPTNeoMLP(\n        (c_fc): Linear(in_features=2560, out_features=10240, bias=True)\n        (c_proj): Linear(in_features=10240, out_features=2560, bias=True)\n        (dropout): Dropout(p=0, inplace=False)\n      )\n    )\n    (1): GPTNeoBlock(\n      (ln_1): LayerNorm((2560,), eps=1e-05, elementwise_affine=True)\n      (attn): GPTNeoAttention(\n        (attention): GPTNeoLocalSelfAttention(\n          (attn_dropout): Dropout(p=0, inplace=False)\n          (resid_dropout): Dropout(p=0, inplace=False)\n          (k_proj): Linear(in_features=2560, out_features=2560, bias=False)\n          (v_proj): Linear(in_features=2560, out_features=2560, bias=False)\n          (q_proj): Linear(in_features=2560, out_features=2560, bias=False)\n          (out_proj): Linear(in_features=2560, out_features=2560, bias=True)\n        )\n      )\n      (ln_2): LayerNorm((2560,), eps=1e-05, elementwise_affine=True)\n      (mlp): GPTNeoMLP(\n        (c_fc): Linear(in_features=2560, out_features=10240, bias=True)\n        (c_proj): Linear(in_features=10240, out_features=2560, bias=True)\n        (dropout): Dropout(p=0, inplace=False)\n      )\n    )\n    (2): GPTNeoBlock(\n      (ln_1): LayerNorm((2560,), eps=1e-05, elementwise_affine=True)\n      (attn): GPTNeoAttention(\n        (attention): GPTNeoSelfAttention(\n          (attn_dropout): Dropout(p=0, inplace=False)\n          (resid_dropout): Dropout(p=0, inplace=False)\n          (k_proj): Linear(in_features=2560, out_features=2560, bias=False)\n          (v_proj): Linear(in_features=2560, out_features=2560, bias=False)\n          (q_proj): Linear(in_features=2560, out_features=2560, bias=False)\n          (out_proj): Linear(in_features=2560, out_features=2560, bias=True)\n        )\n      )\n      (ln_2): LayerNorm((2560,), eps=1e-05, elementwise_affine=True)\n      (mlp): GPTNeoMLP(\n        (c_fc): Linear(in_features=2560, out_features=10240, bias=True)\n        (c_proj): Linear(in_features=10240, out_features=2560, bias=True)\n        (dropout): Dropout(p=0, inplace=False)\n      )\n    )\n    (3): GPTNeoBlock(\n      (ln_1): LayerNorm((2560,), eps=1e-05, elementwise_affine=True)\n      (attn): GPTNeoAttention(\n        (attention): GPTNeoLocalSelfAttention(\n          (attn_dropout): Dropout(p=0, inplace=False)\n          (resid_dropout): Dropout(p=0, inplace=False)\n          (k_proj): Linear(in_features=2560, out_features=2560, bias=False)\n          (v_proj): Linear(in_features=2560, out_features=2560, bias=False)\n          (q_proj): Linear(in_features=2560, out_features=2560, bias=False)\n          (out_proj): Linear(in_features=2560, out_features=2560, bias=True)\n        )\n      )\n      (ln_2): LayerNorm((2560,), eps=1e-05, elementwise_affine=True)\n      (mlp): GPTNeoMLP(\n        (c_fc): Linear(in_features=2560, out_features=10240, bias=True)\n        (c_proj): Linear(in_features=10240, out_features=2560, bias=True)\n        (dropout): Dropout(p=0, inplace=False)\n      )\n    )\n    (4): GPTNeoBlock(\n      (ln_1): LayerNorm((2560,), eps=1e-05, elementwise_affine=True)\n      (attn): GPTNeoAttention(\n        (attention): GPTNeoSelfAttention(\n          (attn_dropout): Dropout(p=0, inplace=False)\n          (resid_dropout): Dropout(p=0, inplace=False)\n          (k_proj): Linear(in_features=2560, out_features=2560, bias=False)\n          (v_proj): Linear(in_features=2560, out_features=2560, bias=False)\n          (q_proj): Linear(in_features=2560, out_features=2560, bias=False)\n          (out_proj): Linear(in_features=2560, out_features=2560, bias=True)\n        )\n      )\n      (ln_2): LayerNorm((2560,), eps=1e-05, elementwise_affine=True)\n      (mlp): GPTNeoMLP(\n        (c_fc): Linear(in_features=2560, out_features=10240, bias=True)\n        (c_proj): Linear(in_features=10240, out_features=2560, bias=True)\n        (dropout): Dropout(p=0, inplace=False)\n      )\n    )\n    (5): GPTNeoBlock(\n      (ln_1): LayerNorm((2560,), eps=1e-05, elementwise_affine=True)\n      (attn): GPTNeoAttention(\n        (attention): GPTNeoLocalSelfAttention(\n          (attn_dropout): Dropout(p=0, inplace=False)\n          (resid_dropout): Dropout(p=0, inplace=False)\n          (k_proj): Linear(in_features=2560, out_features=2560, bias=False)\n          (v_proj): Linear(in_features=2560, out_features=2560, bias=False)\n          (q_proj): Linear(in_features=2560, out_features=2560, bias=False)\n          (out_proj): Linear(in_features=2560, out_features=2560, bias=True)\n        )\n      )\n      (ln_2): LayerNorm((2560,), eps=1e-05, elementwise_affine=True)\n      (mlp): GPTNeoMLP(\n        (c_fc): Linear(in_features=2560, out_features=10240, bias=True)\n        (c_proj): Linear(in_features=10240, out_features=2560, bias=True)\n        (dropout): Dropout(p=0, inplace=False)\n      )\n    )\n    (6): GPTNeoBlock(\n      (ln_1): LayerNorm((2560,), eps=1e-05, elementwise_affine=True)\n      (attn): GPTNeoAttention(\n        (attention): GPTNeoSelfAttention(\n          (attn_dropout): Dropout(p=0, inplace=False)\n          (resid_dropout): Dropout(p=0, inplace=False)\n          (k_proj): Linear(in_features=2560, out_features=2560, bias=False)\n          (v_proj): Linear(in_features=2560, out_features=2560, bias=False)\n          (q_proj): Linear(in_features=2560, out_features=2560, bias=False)\n          (out_proj): Linear(in_features=2560, out_features=2560, bias=True)\n        )\n      )\n      (ln_2): LayerNorm((2560,), eps=1e-05, elementwise_affine=True)\n      (mlp): GPTNeoMLP(\n        (c_fc): Linear(in_features=2560, out_features=10240, bias=True)\n        (c_proj): Linear(in_features=10240, out_features=2560, bias=True)\n        (dropout): Dropout(p=0, inplace=False)\n      )\n    )\n    (7): GPTNeoBlock(\n      (ln_1): LayerNorm((2560,), eps=1e-05, elementwise_affine=True)\n      (attn): GPTNeoAttention(\n        (attention): GPTNeoLocalSelfAttention(\n          (attn_dropout): Dropout(p=0, inplace=False)\n          (resid_dropout): Dropout(p=0, inplace=False)\n          (k_proj): Linear(in_features=2560, out_features=2560, bias=False)\n          (v_proj): Linear(in_features=2560, out_features=2560, bias=False)\n          (q_proj): Linear(in_features=2560, out_features=2560, bias=False)\n          (out_proj): Linear(in_features=2560, out_features=2560, bias=True)\n        )\n      )\n      (ln_2): LayerNorm((2560,), eps=1e-05, elementwise_affine=True)\n      (mlp): GPTNeoMLP(\n        (c_fc): Linear(in_features=2560, out_features=10240, bias=True)\n        (c_proj): Linear(in_features=10240, out_features=2560, bias=True)\n        (dropout): Dropout(p=0, inplace=False)\n      )\n    )\n    (8): GPTNeoBlock(\n      (ln_1): LayerNorm((2560,), eps=1e-05, elementwise_affine=True)\n      (attn): GPTNeoAttention(\n        (attention): GPTNeoSelfAttention(\n          (attn_dropout): Dropout(p=0, inplace=False)\n          (resid_dropout): Dropout(p=0, inplace=False)\n          (k_proj): Linear(in_features=2560, out_features=2560, bias=False)\n          (v_proj): Linear(in_features=2560, out_features=2560, bias=False)\n          (q_proj): Linear(in_features=2560, out_features=2560, bias=False)\n          (out_proj): Linear(in_features=2560, out_features=2560, bias=True)\n        )\n      )\n      (ln_2): LayerNorm((2560,), eps=1e-05, elementwise_affine=True)\n      (mlp): GPTNeoMLP(\n        (c_fc): Linear(in_features=2560, out_features=10240, bias=True)\n        (c_proj): Linear(in_features=10240, out_features=2560, bias=True)\n        (dropout): Dropout(p=0, inplace=False)\n      )\n    )\n    (9): GPTNeoBlock(\n      (ln_1): LayerNorm((2560,), eps=1e-05, elementwise_affine=True)\n      (attn): GPTNeoAttention(\n        (attention): GPTNeoLocalSelfAttention(\n          (attn_dropout): Dropout(p=0, inplace=False)\n          (resid_dropout): Dropout(p=0, inplace=False)\n          (k_proj): Linear(in_features=2560, out_features=2560, bias=False)\n          (v_proj): Linear(in_features=2560, out_features=2560, bias=False)\n          (q_proj): Linear(in_features=2560, out_features=2560, bias=False)\n          (out_proj): Linear(in_features=2560, out_features=2560, bias=True)\n        )\n      )\n      (ln_2): LayerNorm((2560,), eps=1e-05, elementwise_affine=True)\n      (mlp): GPTNeoMLP(\n        (c_fc): Linear(in_features=2560, out_features=10240, bias=True)\n        (c_proj): Linear(in_features=10240, out_features=2560, bias=True)\n        (dropout): Dropout(p=0, inplace=False)\n      )\n    )\n    (10): GPTNeoBlock(\n      (ln_1): LayerNorm((2560,), eps=1e-05, elementwise_affine=True)\n      (attn): GPTNeoAttention(\n        (attention): GPTNeoSelfAttention(\n          (attn_dropout): Dropout(p=0, inplace=False)\n          (resid_dropout): Dropout(p=0, inplace=False)\n          (k_proj): Linear(in_features=2560, out_features=2560, bias=False)\n          (v_proj): Linear(in_features=2560, out_features=2560, bias=False)\n          (q_proj): Linear(in_features=2560, out_features=2560, bias=False)\n          (out_proj): Linear(in_features=2560, out_features=2560, bias=True)\n        )\n      )\n      (ln_2): LayerNorm((2560,), eps=1e-05, elementwise_affine=True)\n      (mlp): GPTNeoMLP(\n        (c_fc): Linear(in_features=2560, out_features=10240, bias=True)\n        (c_proj): Linear(in_features=10240, out_features=2560, bias=True)\n        (dropout): Dropout(p=0, inplace=False)\n      )\n    )\n    (11): GPTNeoBlock(\n      (ln_1): LayerNorm((2560,), eps=1e-05, elementwise_affine=True)\n      (attn): GPTNeoAttention(\n        (attention): GPTNeoLocalSelfAttention(\n          (attn_dropout): Dropout(p=0, inplace=False)\n          (resid_dropout): Dropout(p=0, inplace=False)\n          (k_proj): Linear(in_features=2560, out_features=2560, bias=False)\n          (v_proj): Linear(in_features=2560, out_features=2560, bias=False)\n          (q_proj): Linear(in_features=2560, out_features=2560, bias=False)\n          (out_proj): Linear(in_features=2560, out_features=2560, bias=True)\n        )\n      )\n      (ln_2): LayerNorm((2560,), eps=1e-05, elementwise_affine=True)\n      (mlp): GPTNeoMLP(\n        (c_fc): Linear(in_features=2560, out_features=10240, bias=True)\n        (c_proj): Linear(in_features=10240, out_features=2560, bias=True)\n        (dropout): Dropout(p=0, inplace=False)\n      )\n    )\n    (12): GPTNeoBlock(\n      (ln_1): LayerNorm((2560,), eps=1e-05, elementwise_affine=True)\n      (attn): GPTNeoAttention(\n        (attention): GPTNeoSelfAttention(\n          (attn_dropout): Dropout(p=0, inplace=False)\n          (resid_dropout): Dropout(p=0, inplace=False)\n          (k_proj): Linear(in_features=2560, out_features=2560, bias=False)\n          (v_proj): Linear(in_features=2560, out_features=2560, bias=False)\n          (q_proj): Linear(in_features=2560, out_features=2560, bias=False)\n          (out_proj): Linear(in_features=2560, out_features=2560, bias=True)\n        )\n      )\n      (ln_2): LayerNorm((2560,), eps=1e-05, elementwise_affine=True)\n      (mlp): GPTNeoMLP(\n        (c_fc): Linear(in_features=2560, out_features=10240, bias=True)\n        (c_proj): Linear(in_features=10240, out_features=2560, bias=True)\n        (dropout): Dropout(p=0, inplace=False)\n      )\n    )\n    (13): GPTNeoBlock(\n      (ln_1): LayerNorm((2560,), eps=1e-05, elementwise_affine=True)\n      (attn): GPTNeoAttention(\n        (attention): GPTNeoLocalSelfAttention(\n          (attn_dropout): Dropout(p=0, inplace=False)\n          (resid_dropout): Dropout(p=0, inplace=False)\n          (k_proj): Linear(in_features=2560, out_features=2560, bias=False)\n          (v_proj): Linear(in_features=2560, out_features=2560, bias=False)\n          (q_proj): Linear(in_features=2560, out_features=2560, bias=False)\n          (out_proj): Linear(in_features=2560, out_features=2560, bias=True)\n        )\n      )\n      (ln_2): LayerNorm((2560,), eps=1e-05, elementwise_affine=True)\n      (mlp): GPTNeoMLP(\n        (c_fc): Linear(in_features=2560, out_features=10240, bias=True)\n        (c_proj): Linear(in_features=10240, out_features=2560, bias=True)\n        (dropout): Dropout(p=0, inplace=False)\n      )\n    )\n    (14): GPTNeoBlock(\n      (ln_1): LayerNorm((2560,), eps=1e-05, elementwise_affine=True)\n      (attn): GPTNeoAttention(\n        (attention): GPTNeoSelfAttention(\n          (attn_dropout): Dropout(p=0, inplace=False)\n          (resid_dropout): Dropout(p=0, inplace=False)\n          (k_proj): Linear(in_features=2560, out_features=2560, bias=False)\n          (v_proj): Linear(in_features=2560, out_features=2560, bias=False)\n          (q_proj): Linear(in_features=2560, out_features=2560, bias=False)\n          (out_proj): Linear(in_features=2560, out_features=2560, bias=True)\n        )\n      )\n      (ln_2): LayerNorm((2560,), eps=1e-05, elementwise_affine=True)\n      (mlp): GPTNeoMLP(\n        (c_fc): Linear(in_features=2560, out_features=10240, bias=True)\n        (c_proj): Linear(in_features=10240, out_features=2560, bias=True)\n        (dropout): Dropout(p=0, inplace=False)\n      )\n    )\n    (15): GPTNeoBlock(\n      (ln_1): LayerNorm((2560,), eps=1e-05, elementwise_affine=True)\n      (attn): GPTNeoAttention(\n        (attention): GPTNeoLocalSelfAttention(\n          (attn_dropout): Dropout(p=0, inplace=False)\n          (resid_dropout): Dropout(p=0, inplace=False)\n          (k_proj): Linear(in_features=2560, out_features=2560, bias=False)\n          (v_proj): Linear(in_features=2560, out_features=2560, bias=False)\n          (q_proj): Linear(in_features=2560, out_features=2560, bias=False)\n          (out_proj): Linear(in_features=2560, out_features=2560, bias=True)\n        )\n      )\n      (ln_2): LayerNorm((2560,), eps=1e-05, elementwise_affine=True)\n      (mlp): GPTNeoMLP(\n        (c_fc): Linear(in_features=2560, out_features=10240, bias=True)\n        (c_proj): Linear(in_features=10240, out_features=2560, bias=True)\n        (dropout): Dropout(p=0, inplace=False)\n      )\n    )\n    (16): GPTNeoBlock(\n      (ln_1): LayerNorm((2560,), eps=1e-05, elementwise_affine=True)\n      (attn): GPTNeoAttention(\n        (attention): GPTNeoSelfAttention(\n          (attn_dropout): Dropout(p=0, inplace=False)\n          (resid_dropout): Dropout(p=0, inplace=False)\n          (k_proj): Linear(in_features=2560, out_features=2560, bias=False)\n          (v_proj): Linear(in_features=2560, out_features=2560, bias=False)\n          (q_proj): Linear(in_features=2560, out_features=2560, bias=False)\n          (out_proj): Linear(in_features=2560, out_features=2560, bias=True)\n        )\n      )\n      (ln_2): LayerNorm((2560,), eps=1e-05, elementwise_affine=True)\n      (mlp): GPTNeoMLP(\n        (c_fc): Linear(in_features=2560, out_features=10240, bias=True)\n        (c_proj): Linear(in_features=10240, out_features=2560, bias=True)\n        (dropout): Dropout(p=0, inplace=False)\n      )\n    )\n    (17): GPTNeoBlock(\n      (ln_1): LayerNorm((2560,), eps=1e-05, elementwise_affine=True)\n      (attn): GPTNeoAttention(\n        (attention): GPTNeoLocalSelfAttention(\n          (attn_dropout): Dropout(p=0, inplace=False)\n          (resid_dropout): Dropout(p=0, inplace=False)\n          (k_proj): Linear(in_features=2560, out_features=2560, bias=False)\n          (v_proj): Linear(in_features=2560, out_features=2560, bias=False)\n          (q_proj): Linear(in_features=2560, out_features=2560, bias=False)\n          (out_proj): Linear(in_features=2560, out_features=2560, bias=True)\n        )\n      )\n      (ln_2): LayerNorm((2560,), eps=1e-05, elementwise_affine=True)\n      (mlp): GPTNeoMLP(\n        (c_fc): Linear(in_features=2560, out_features=10240, bias=True)\n        (c_proj): Linear(in_features=10240, out_features=2560, bias=True)\n        (dropout): Dropout(p=0, inplace=False)\n      )\n    )\n    (18): GPTNeoBlock(\n      (ln_1): LayerNorm((2560,), eps=1e-05, elementwise_affine=True)\n      (attn): GPTNeoAttention(\n        (attention): GPTNeoSelfAttention(\n          (attn_dropout): Dropout(p=0, inplace=False)\n          (resid_dropout): Dropout(p=0, inplace=False)\n          (k_proj): Linear(in_features=2560, out_features=2560, bias=False)\n          (v_proj): Linear(in_features=2560, out_features=2560, bias=False)\n          (q_proj): Linear(in_features=2560, out_features=2560, bias=False)\n          (out_proj): Linear(in_features=2560, out_features=2560, bias=True)\n        )\n      )\n      (ln_2): LayerNorm((2560,), eps=1e-05, elementwise_affine=True)\n      (mlp): GPTNeoMLP(\n        (c_fc): Linear(in_features=2560, out_features=10240, bias=True)\n        (c_proj): Linear(in_features=10240, out_features=2560, bias=True)\n        (dropout): Dropout(p=0, inplace=False)\n      )\n    )\n    (19): GPTNeoBlock(\n      (ln_1): LayerNorm((2560,), eps=1e-05, elementwise_affine=True)\n      (attn): GPTNeoAttention(\n        (attention): GPTNeoLocalSelfAttention(\n          (attn_dropout): Dropout(p=0, inplace=False)\n          (resid_dropout): Dropout(p=0, inplace=False)\n          (k_proj): Linear(in_features=2560, out_features=2560, bias=False)\n          (v_proj): Linear(in_features=2560, out_features=2560, bias=False)\n          (q_proj): Linear(in_features=2560, out_features=2560, bias=False)\n          (out_proj): Linear(in_features=2560, out_features=2560, bias=True)\n        )\n      )\n      (ln_2): LayerNorm((2560,), eps=1e-05, elementwise_affine=True)\n      (mlp): GPTNeoMLP(\n        (c_fc): Linear(in_features=2560, out_features=10240, bias=True)\n        (c_proj): Linear(in_features=10240, out_features=2560, bias=True)\n        (dropout): Dropout(p=0, inplace=False)\n      )\n    )\n    (20): GPTNeoBlock(\n      (ln_1): LayerNorm((2560,), eps=1e-05, elementwise_affine=True)\n      (attn): GPTNeoAttention(\n        (attention): GPTNeoSelfAttention(\n          (attn_dropout): Dropout(p=0, inplace=False)\n          (resid_dropout): Dropout(p=0, inplace=False)\n          (k_proj): Linear(in_features=2560, out_features=2560, bias=False)\n          (v_proj): Linear(in_features=2560, out_features=2560, bias=False)\n          (q_proj): Linear(in_features=2560, out_features=2560, bias=False)\n          (out_proj): Linear(in_features=2560, out_features=2560, bias=True)\n        )\n      )\n      (ln_2): LayerNorm((2560,), eps=1e-05, elementwise_affine=True)\n      (mlp): GPTNeoMLP(\n        (c_fc): Linear(in_features=2560, out_features=10240, bias=True)\n        (c_proj): Linear(in_features=10240, out_features=2560, bias=True)\n        (dropout): Dropout(p=0, inplace=False)\n      )\n    )\n    (21): GPTNeoBlock(\n      (ln_1): LayerNorm((2560,), eps=1e-05, elementwise_affine=True)\n      (attn): GPTNeoAttention(\n        (attention): GPTNeoLocalSelfAttention(\n          (attn_dropout): Dropout(p=0, inplace=False)\n          (resid_dropout): Dropout(p=0, inplace=False)\n          (k_proj): Linear(in_features=2560, out_features=2560, bias=False)\n          (v_proj): Linear(in_features=2560, out_features=2560, bias=False)\n          (q_proj): Linear(in_features=2560, out_features=2560, bias=False)\n          (out_proj): Linear(in_features=2560, out_features=2560, bias=True)\n        )\n      )\n      (ln_2): LayerNorm((2560,), eps=1e-05, elementwise_affine=True)\n      (mlp): GPTNeoMLP(\n        (c_fc): Linear(in_features=2560, out_features=10240, bias=True)\n        (c_proj): Linear(in_features=10240, out_features=2560, bias=True)\n        (dropout): Dropout(p=0, inplace=False)\n      )\n    )\n    (22): GPTNeoBlock(\n      (ln_1): LayerNorm((2560,), eps=1e-05, elementwise_affine=True)\n      (attn): GPTNeoAttention(\n        (attention): GPTNeoSelfAttention(\n          (attn_dropout): Dropout(p=0, inplace=False)\n          (resid_dropout): Dropout(p=0, inplace=False)\n          (k_proj): Linear(in_features=2560, out_features=2560, bias=False)\n          (v_proj): Linear(in_features=2560, out_features=2560, bias=False)\n          (q_proj): Linear(in_features=2560, out_features=2560, bias=False)\n          (out_proj): Linear(in_features=2560, out_features=2560, bias=True)\n        )\n      )\n      (ln_2): LayerNorm((2560,), eps=1e-05, elementwise_affine=True)\n      (mlp): GPTNeoMLP(\n        (c_fc): Linear(in_features=2560, out_features=10240, bias=True)\n        (c_proj): Linear(in_features=10240, out_features=2560, bias=True)\n        (dropout): Dropout(p=0, inplace=False)\n      )\n    )\n    (23): GPTNeoBlock(\n      (ln_1): LayerNorm((2560,), eps=1e-05, elementwise_affine=True)\n      (attn): GPTNeoAttention(\n        (attention): GPTNeoLocalSelfAttention(\n          (attn_dropout): Dropout(p=0, inplace=False)\n          (resid_dropout): Dropout(p=0, inplace=False)\n          (k_proj): Linear(in_features=2560, out_features=2560, bias=False)\n          (v_proj): Linear(in_features=2560, out_features=2560, bias=False)\n          (q_proj): Linear(in_features=2560, out_features=2560, bias=False)\n          (out_proj): Linear(in_features=2560, out_features=2560, bias=True)\n        )\n      )\n      (ln_2): LayerNorm((2560,), eps=1e-05, elementwise_affine=True)\n      (mlp): GPTNeoMLP(\n        (c_fc): Linear(in_features=2560, out_features=10240, bias=True)\n        (c_proj): Linear(in_features=10240, out_features=2560, bias=True)\n        (dropout): Dropout(p=0, inplace=False)\n      )\n    )\n    (24): GPTNeoBlock(\n      (ln_1): LayerNorm((2560,), eps=1e-05, elementwise_affine=True)\n      (attn): GPTNeoAttention(\n        (attention): GPTNeoSelfAttention(\n          (attn_dropout): Dropout(p=0, inplace=False)\n          (resid_dropout): Dropout(p=0, inplace=False)\n          (k_proj): Linear(in_features=2560, out_features=2560, bias=False)\n          (v_proj): Linear(in_features=2560, out_features=2560, bias=False)\n          (q_proj): Linear(in_features=2560, out_features=2560, bias=False)\n          (out_proj): Linear(in_features=2560, out_features=2560, bias=True)\n        )\n      )\n      (ln_2): LayerNorm((2560,), eps=1e-05, elementwise_affine=True)\n      (mlp): GPTNeoMLP(\n        (c_fc): Linear(in_features=2560, out_features=10240, bias=True)\n        (c_proj): Linear(in_features=10240, out_features=2560, bias=True)\n        (dropout): Dropout(p=0, inplace=False)\n      )\n    )\n    (25): GPTNeoBlock(\n      (ln_1): LayerNorm((2560,), eps=1e-05, elementwise_affine=True)\n      (attn): GPTNeoAttention(\n        (attention): GPTNeoLocalSelfAttention(\n          (attn_dropout): Dropout(p=0, inplace=False)\n          (resid_dropout): Dropout(p=0, inplace=False)\n          (k_proj): Linear(in_features=2560, out_features=2560, bias=False)\n          (v_proj): Linear(in_features=2560, out_features=2560, bias=False)\n          (q_proj): Linear(in_features=2560, out_features=2560, bias=False)\n          (out_proj): Linear(in_features=2560, out_features=2560, bias=True)\n        )\n      )\n      (ln_2): LayerNorm((2560,), eps=1e-05, elementwise_affine=True)\n      (mlp): GPTNeoMLP(\n        (c_fc): Linear(in_features=2560, out_features=10240, bias=True)\n        (c_proj): Linear(in_features=10240, out_features=2560, bias=True)\n        (dropout): Dropout(p=0, inplace=False)\n      )\n    )\n    (26): GPTNeoBlock(\n      (ln_1): LayerNorm((2560,), eps=1e-05, elementwise_affine=True)\n      (attn): GPTNeoAttention(\n        (attention): GPTNeoSelfAttention(\n          (attn_dropout): Dropout(p=0, inplace=False)\n          (resid_dropout): Dropout(p=0, inplace=False)\n          (k_proj): Linear(in_features=2560, out_features=2560, bias=False)\n          (v_proj): Linear(in_features=2560, out_features=2560, bias=False)\n          (q_proj): Linear(in_features=2560, out_features=2560, bias=False)\n          (out_proj): Linear(in_features=2560, out_features=2560, bias=True)\n        )\n      )\n      (ln_2): LayerNorm((2560,), eps=1e-05, elementwise_affine=True)\n      (mlp): GPTNeoMLP(\n        (c_fc): Linear(in_features=2560, out_features=10240, bias=True)\n        (c_proj): Linear(in_features=10240, out_features=2560, bias=True)\n        (dropout): Dropout(p=0, inplace=False)\n      )\n    )\n    (27): GPTNeoBlock(\n      (ln_1): LayerNorm((2560,), eps=1e-05, elementwise_affine=True)\n      (attn): GPTNeoAttention(\n        (attention): GPTNeoLocalSelfAttention(\n          (attn_dropout): Dropout(p=0, inplace=False)\n          (resid_dropout): Dropout(p=0, inplace=False)\n          (k_proj): Linear(in_features=2560, out_features=2560, bias=False)\n          (v_proj): Linear(in_features=2560, out_features=2560, bias=False)\n          (q_proj): Linear(in_features=2560, out_features=2560, bias=False)\n          (out_proj): Linear(in_features=2560, out_features=2560, bias=True)\n        )\n      )\n      (ln_2): LayerNorm((2560,), eps=1e-05, elementwise_affine=True)\n      (mlp): GPTNeoMLP(\n        (c_fc): Linear(in_features=2560, out_features=10240, bias=True)\n        (c_proj): Linear(in_features=10240, out_features=2560, bias=True)\n        (dropout): Dropout(p=0, inplace=False)\n      )\n    )\n    (28): GPTNeoBlock(\n      (ln_1): LayerNorm((2560,), eps=1e-05, elementwise_affine=True)\n      (attn): GPTNeoAttention(\n        (attention): GPTNeoSelfAttention(\n          (attn_dropout): Dropout(p=0, inplace=False)\n          (resid_dropout): Dropout(p=0, inplace=False)\n          (k_proj): Linear(in_features=2560, out_features=2560, bias=False)\n          (v_proj): Linear(in_features=2560, out_features=2560, bias=False)\n          (q_proj): Linear(in_features=2560, out_features=2560, bias=False)\n          (out_proj): Linear(in_features=2560, out_features=2560, bias=True)\n        )\n      )\n      (ln_2): LayerNorm((2560,), eps=1e-05, elementwise_affine=True)\n      (mlp): GPTNeoMLP(\n        (c_fc): Linear(in_features=2560, out_features=10240, bias=True)\n        (c_proj): Linear(in_features=10240, out_features=2560, bias=True)\n        (dropout): Dropout(p=0, inplace=False)\n      )\n    )\n    (29): GPTNeoBlock(\n      (ln_1): LayerNorm((2560,), eps=1e-05, elementwise_affine=True)\n      (attn): GPTNeoAttention(\n        (attention): GPTNeoLocalSelfAttention(\n          (attn_dropout): Dropout(p=0, inplace=False)\n          (resid_dropout): Dropout(p=0, inplace=False)\n          (k_proj): Linear(in_features=2560, out_features=2560, bias=False)\n          (v_proj): Linear(in_features=2560, out_features=2560, bias=False)\n          (q_proj): Linear(in_features=2560, out_features=2560, bias=False)\n          (out_proj): Linear(in_features=2560, out_features=2560, bias=True)\n        )\n      )\n      (ln_2): LayerNorm((2560,), eps=1e-05, elementwise_affine=True)\n      (mlp): GPTNeoMLP(\n        (c_fc): Linear(in_features=2560, out_features=10240, bias=True)\n        (c_proj): Linear(in_features=10240, out_features=2560, bias=True)\n        (dropout): Dropout(p=0, inplace=False)\n      )\n    )\n    (30): GPTNeoBlock(\n      (ln_1): LayerNorm((2560,), eps=1e-05, elementwise_affine=True)\n      (attn): GPTNeoAttention(\n        (attention): GPTNeoSelfAttention(\n          (attn_dropout): Dropout(p=0, inplace=False)\n          (resid_dropout): Dropout(p=0, inplace=False)\n          (k_proj): Linear(in_features=2560, out_features=2560, bias=False)\n          (v_proj): Linear(in_features=2560, out_features=2560, bias=False)\n          (q_proj): Linear(in_features=2560, out_features=2560, bias=False)\n          (out_proj): Linear(in_features=2560, out_features=2560, bias=True)\n        )\n      )\n      (ln_2): LayerNorm((2560,), eps=1e-05, elementwise_affine=True)\n      (mlp): GPTNeoMLP(\n        (c_fc): Linear(in_features=2560, out_features=10240, bias=True)\n        (c_proj): Linear(in_features=10240, out_features=2560, bias=True)\n        (dropout): Dropout(p=0, inplace=False)\n      )\n    )\n    (31): GPTNeoBlock(\n      (ln_1): LayerNorm((2560,), eps=1e-05, elementwise_affine=True)\n      (attn): GPTNeoAttention(\n        (attention): GPTNeoLocalSelfAttention(\n          (attn_dropout): Dropout(p=0, inplace=False)\n          (resid_dropout): Dropout(p=0, inplace=False)\n          (k_proj): Linear(in_features=2560, out_features=2560, bias=False)\n          (v_proj): Linear(in_features=2560, out_features=2560, bias=False)\n          (q_proj): Linear(in_features=2560, out_features=2560, bias=False)\n          (out_proj): Linear(in_features=2560, out_features=2560, bias=True)\n        )\n      )\n      (ln_2): LayerNorm((2560,), eps=1e-05, elementwise_affine=True)\n      (mlp): GPTNeoMLP(\n        (c_fc): Linear(in_features=2560, out_features=10240, bias=True)\n        (c_proj): Linear(in_features=10240, out_features=2560, bias=True)\n        (dropout): Dropout(p=0, inplace=False)\n      )\n    )\n  )\n  (ln_f): LayerNorm((2560,), eps=1e-05, elementwise_affine=True)\n)",
                "parameters": [
                    [
                        "wte.prompt_embedding.weight",
                        [
                            10000,
                            2560
                        ]
                    ],
                    [
                        "wpe.weight",
                        [
                            2048,
…
